…
  Data(edge_index=[2, 109093626], edge_attr=[109093626, 3], x=[52970652, 9], y=[3746620])
  undirected: True
  num graphs: 3746620
  avg num_nodes/graph: 14
  num node features: 9
  num edge features: 3
  num classes: (appears to be a regression task)
Parsed RWSE PE kernel times / steps: [1, 2, 3, 4, 5, 6, 7, 8, 9, 10, 11, 12, 13, 14, 15, 16]
Precomputing Positional Encoding statistics: ['RWSE'] for all graphs...
  ...estimated to be undirected: True
Done! Took 00:44:10.53
GPSModel(
  (encoder): FeatureEncoder(
    (node_encoder): Concat2NodeEncoder(
      (encoder1): AtomEncoder(
        (atom_embedding_list): ModuleList(
          (0): Embedding(119, 236)
          (1): Embedding(4, 236)
          (2): Embedding(12, 236)
          (3): Embedding(12, 236)
          (4): Embedding(10, 236)
          (5): Embedding(6, 236)
          (6): Embedding(6, 236)
          (7): Embedding(2, 236)
          (8): Embedding(2, 236)
        )
      )
      (encoder2): RWSENodeEncoder(
        (raw_norm): BatchNorm1d(16, eps=1e-05, momentum=0.1, affine=True, track_running_stats=True)
        (pe_encoder): Linear(in_features=16, out_features=20, bias=True)
      )
    )
    (edge_encoder): BondEncoder(
      (bond_embedding_list): ModuleList(
        (0): Embedding(5, 256)
        (1): Embedding(6, 256)
        (2): Embedding(2, 256)
      )
    )
  )
  (layers): Sequential(
    (0): GPSLayer(
      summary: dim_h=256, local_gnn_type=CustomGatedGCN, global_model_type=Transformer, heads=8
      (activation): GELU()
      (local_model): GatedGCNLayer()
      (self_attn): MultiheadAttention(
        (out_proj): NonDynamicallyQuantizableLinear(in_features=256, out_features=256, bias=True)
      )
      (norm1_local): BatchNorm1d(256, eps=1e-05, momentum=0.1, affine=True, track_running_stats=True)
      (norm1_attn): BatchNorm1d(256, eps=1e-05, momentum=0.1, affine=True, track_running_stats=True)
      (dropout_local): Dropout(p=0.1, inplace=False)
      (dropout_attn): Dropout(p=0.1, inplace=False)
      (ff_linear1): Linear(in_features=256, out_features=512, bias=True)
      (ff_linear2): Linear(in_features=512, out_features=256, bias=True)
      (norm2): BatchNorm1d(256, eps=1e-05, momentum=0.1, affine=True, track_running_stats=True)
      (ff_dropout1): Dropout(p=0.1, inplace=False)
      (ff_dropout2): Dropout(p=0.1, inplace=False)
    )
    (1): GPSLayer(
      summary: dim_h=256, local_gnn_type=CustomGatedGCN, global_model_type=Transformer, heads=8
      (activation): GELU()
      (local_model): GatedGCNLayer()
      (self_attn): MultiheadAttention(
        (out_proj): NonDynamicallyQuantizableLinear(in_features=256, out_features=256, bias=True)
      )
      (norm1_local): BatchNorm1d(256, eps=1e-05, momentum=0.1, affine=True, track_running_stats=True)
      (norm1_attn): BatchNorm1d(256, eps=1e-05, momentum=0.1, affine=True, track_running_stats=True)
      (dropout_local): Dropout(p=0.1, inplace=False)
      (dropout_attn): Dropout(p=0.1, inplace=False)
      (ff_linear1): Linear(in_features=256, out_features=512, bias=True)
      (ff_linear2): Linear(in_features=512, out_features=256, bias=True)
      (norm2): BatchNorm1d(256, eps=1e-05, momentum=0.1, affine=True, track_running_stats=True)
      (ff_dropout1): Dropout(p=0.1, inplace=False)
      (ff_dropout2): Dropout(p=0.1, inplace=False)
    )
    (2): GPSLayer(
      summary: dim_h=256, local_gnn_type=CustomGatedGCN, global_model_type=Transformer, heads=8
      (activation): GELU()
      (local_model): GatedGCNLayer()
      (self_attn): MultiheadAttention(
        (out_proj): NonDynamicallyQuantizableLinear(in_features=256, out_features=256, bias=True)
      )
      (norm1_local): BatchNorm1d(256, eps=1e-05, momentum=0.1, affine=True, track_running_stats=True)
      (norm1_attn): BatchNorm1d(256, eps=1e-05, momentum=0.1, affine=True, track_running_stats=True)
      (dropout_local): Dropout(p=0.1, inplace=False)
      (dropout_attn): Dropout(p=0.1, inplace=False)
      (ff_linear1): Linear(in_features=256, out_features=512, bias=True)
      (ff_linear2): Linear(in_features=512, out_features=256, bias=True)
      (norm2): BatchNorm1d(256, eps=1e-05, momentum=0.1, affine=True, track_running_stats=True)
      (ff_dropout1): Dropout(p=0.1, inplace=False)
      (ff_dropout2): Dropout(p=0.1, inplace=False)
    )
    (3): GPSLayer(
      summary: dim_h=256, local_gnn_type=CustomGatedGCN, global_model_type=Transformer, heads=8
      (activation): GELU()
      (local_model): GatedGCNLayer()
      (self_attn): MultiheadAttention(
        (out_proj): NonDynamicallyQuantizableLinear(in_features=256, out_features=256, bias=True)
      )
      (norm1_local): BatchNorm1d(256, eps=1e-05, momentum=0.1, affine=True, track_running_stats=True)
      (norm1_attn): BatchNorm1d(256, eps=1e-05, momentum=0.1, affine=True, track_running_stats=True)
      (dropout_local): Dropout(p=0.1, inplace=False)
      (dropout_attn): Dropout(p=0.1, inplace=False)
      (ff_linear1): Linear(in_features=256, out_features=512, bias=True)
      (ff_linear2): Linear(in_features=512, out_features=256, bias=True)
      (norm2): BatchNorm1d(256, eps=1e-05, momentum=0.1, affine=True, track_running_stats=True)
      (ff_dropout1): Dropout(p=0.1, inplace=False)
      (ff_dropout2): Dropout(p=0.1, inplace=False)
    )
    (4): GPSLayer(
      summary: dim_h=256, local_gnn_type=CustomGatedGCN, global_model_type=Transformer, heads=8
      (activation): GELU()
      (local_model): GatedGCNLayer()
      (self_attn): MultiheadAttention(
        (out_proj): NonDynamicallyQuantizableLinear(in_features=256, out_features=256, bias=True)
      )
      (norm1_local): BatchNorm1d(256, eps=1e-05, momentum=0.1, affine=True, track_running_stats=True)
      (norm1_attn): BatchNorm1d(256, eps=1e-05, momentum=0.1, affine=True, track_running_stats=True)
      (dropout_local): Dropout(p=0.1, inplace=False)
      (dropout_attn): Dropout(p=0.1, inplace=False)
      (ff_linear1): Linear(in_features=256, out_features=512, bias=True)
      (ff_linear2): Linear(in_features=512, out_features=256, bias=True)
      (norm2): BatchNorm1d(256, eps=1e-05, momentum=0.1, affine=True, track_running_stats=True)
      (ff_dropout1): Dropout(p=0.1, inplace=False)
      (ff_dropout2): Dropout(p=0.1, inplace=False)
    )
    (5): GPSLayer(
      summary: dim_h=256, local_gnn_type=CustomGatedGCN, global_model_type=Transformer, heads=8
      (activation): GELU()
      (local_model): GatedGCNLayer()
      (self_attn): MultiheadAttention(
        (out_proj): NonDynamicallyQuantizableLinear(in_features=256, out_features=256, bias=True)
      )
      (norm1_local): BatchNorm1d(256, eps=1e-05, momentum=0.1, affine=True, track_running_stats=True)
      (norm1_attn): BatchNorm1d(256, eps=1e-05, momentum=0.1, affine=True, track_running_stats=True)
      (dropout_local): Dropout(p=0.1, inplace=False)
      (dropout_attn): Dropout(p=0.1, inplace=False)
      (ff_linear1): Linear(in_features=256, out_features=512, bias=True)
      (ff_linear2): Linear(in_features=512, out_features=256, bias=True)
      (norm2): BatchNorm1d(256, eps=1e-05, momentum=0.1, affine=True, track_running_stats=True)
      (ff_dropout1): Dropout(p=0.1, inplace=False)
      (ff_dropout2): Dropout(p=0.1, inplace=False)
    )
    (6): GPSLayer(
      summary: dim_h=256, local_gnn_type=CustomGatedGCN, global_model_type=Transformer, heads=8
      (activation): GELU()
      (local_model): GatedGCNLayer()
      (self_attn): MultiheadAttention(
        (out_proj): NonDynamicallyQuantizableLinear(in_features=256, out_features=256, bias=True)
      )
      (norm1_local): BatchNorm1d(256, eps=1e-05, momentum=0.1, affine=True, track_running_stats=True)
      (norm1_attn): BatchNorm1d(256, eps=1e-05, momentum=0.1, affine=True, track_running_stats=True)
      (dropout_local): Dropout(p=0.1, inplace=False)
      (dropout_attn): Dropout(p=0.1, inplace=False)
      (ff_linear1): Linear(in_features=256, out_features=512, bias=True)
      (ff_linear2): Linear(in_features=512, out_features=256, bias=True)
      (norm2): BatchNorm1d(256, eps=1e-05, momentum=0.1, affine=True, track_running_stats=True)
      (ff_dropout1): Dropout(p=0.1, inplace=False)
      (ff_dropout2): Dropout(p=0.1, inplace=False)
    )
    (7): GPSLayer(
      summary: dim_h=256, local_gnn_type=CustomGatedGCN, global_model_type=Transformer, heads=8
      (activation): GELU()
      (local_model): GatedGCNLayer()
      (self_attn): MultiheadAttention(
        (out_proj): NonDynamicallyQuantizableLinear(in_features=256, out_features=256, bias=True)
      )
      (norm1_local): BatchNorm1d(256, eps=1e-05, momentum=0.1, affine=True, track_running_stats=True)
      (norm1_attn): BatchNorm1d(256, eps=1e-05, momentum=0.1, affine=True, track_running_stats=True)
      (dropout_local): Dropout(p=0.1, inplace=False)
      (dropout_attn): Dropout(p=0.1, inplace=False)
      (ff_linear1): Linear(in_features=256, out_features=512, bias=True)
      (ff_linear2): Linear(in_features=512, out_features=256, bias=True)
      (norm2): BatchNorm1d(256, eps=1e-05, momentum=0.1, affine=True, track_running_stats=True)
      (ff_dropout1): Dropout(p=0.1, inplace=False)
      (ff_dropout2): Dropout(p=0.1, inplace=False)
    )
    (8): GPSLayer(
      summary: dim_h=256, local_gnn_type=CustomGatedGCN, global_model_type=Transformer, heads=8
      (activation): GELU()
      (local_model): GatedGCNLayer()
      (self_attn): MultiheadAttention(
        (out_proj): NonDynamicallyQuantizableLinear(in_features=256, out_features=256, bias=True)
      )
      (norm1_local): BatchNorm1d(256, eps=1e-05, momentum=0.1, affine=True, track_running_stats=True)
      (norm1_attn): BatchNorm1d(256, eps=1e-05, momentum=0.1, affine=True, track_running_stats=True)
      (dropout_local): Dropout(p=0.1, inplace=False)
      (dropout_attn): Dropout(p=0.1, inplace=False)
      (ff_linear1): Linear(in_features=256, out_features=512, bias=True)
      (ff_linear2): Linear(in_features=512, out_features=256, bias=True)
      (norm2): BatchNorm1d(256, eps=1e-05, momentum=0.1, affine=True, track_running_stats=True)
      (ff_dropout1): Dropout(p=0.1, inplace=False)
      (ff_dropout2): Dropout(p=0.1, inplace=False)
    )
    (9): GPSLayer(
      summary: dim_h=256, local_gnn_type=CustomGatedGCN, global_model_type=Transformer, heads=8
      (activation): GELU()
      (local_model): GatedGCNLayer()
      (self_attn): MultiheadAttention(
        (out_proj): NonDynamicallyQuantizableLinear(in_features=256, out_features=256, bias=True)
      )
      (norm1_local): BatchNorm1d(256, eps=1e-05, momentum=0.1, affine=True, track_running_stats=True)
      (norm1_attn): BatchNorm1d(256, eps=1e-05, momentum=0.1, affine=True, track_running_stats=True)
      (dropout_local): Dropout(p=0.1, inplace=False)
      (dropout_attn): Dropout(p=0.1, inplace=False)
      (ff_linear1): Linear(in_features=256, out_features=512, bias=True)
      (ff_linear2): Linear(in_features=512, out_features=256, bias=True)
      (norm2): BatchNorm1d(256, eps=1e-05, momentum=0.1, affine=True, track_running_stats=True)
      (ff_dropout1): Dropout(p=0.1, inplace=False)
      (ff_dropout2): Dropout(p=0.1, inplace=False)
    )
    (10): GPSLayer(
      summary: dim_h=256, local_gnn_type=CustomGatedGCN, global_model_type=Transformer, heads=8
      (activation): GELU()
      (local_model): GatedGCNLayer()
      (self_attn): MultiheadAttention(
        (out_proj): NonDynamicallyQuantizableLinear(in_features=256, out_features=256, bias=True)
      )
      (norm1_local): BatchNorm1d(256, eps=1e-05, momentum=0.1, affine=True, track_running_stats=True)
      (norm1_attn): BatchNorm1d(256, eps=1e-05, momentum=0.1, affine=True, track_running_stats=True)
      (dropout_local): Dropout(p=0.1, inplace=False)
      (dropout_attn): Dropout(p=0.1, inplace=False)
      (ff_linear1): Linear(in_features=256, out_features=512, bias=True)
      (ff_linear2): Linear(in_features=512, out_features=256, bias=True)
      (norm2): BatchNorm1d(256, eps=1e-05, momentum=0.1, affine=True, track_running_stats=True)
      (ff_dropout1): Dropout(p=0.1, inplace=False)
      (ff_dropout2): Dropout(p=0.1, inplace=False)
    )
    (11): GPSLayer(
      summary: dim_h=256, local_gnn_type=CustomGatedGCN, global_model_type=Transformer, heads=8
      (activation): GELU()
      (local_model): GatedGCNLayer()
      (self_attn): MultiheadAttention(
        (out_proj): NonDynamicallyQuantizableLinear(in_features=256, out_features=256, bias=True)
      )
      (norm1_local): BatchNorm1d(256, eps=1e-05, momentum=0.1, affine=True, track_running_stats=True)
      (norm1_attn): BatchNorm1d(256, eps=1e-05, momentum=0.1, affine=True, track_running_stats=True)
      (dropout_local): Dropout(p=0.1, inplace=False)
      (dropout_attn): Dropout(p=0.1, inplace=False)
      (ff_linear1): Linear(in_features=256, out_features=512, bias=True)
      (ff_linear2): Linear(in_features=512, out_features=256, bias=True)
      (norm2): BatchNorm1d(256, eps=1e-05, momentum=0.1, affine=True, track_running_stats=True)
      (ff_dropout1): Dropout(p=0.1, inplace=False)
      (ff_dropout2): Dropout(p=0.1, inplace=False)
    )
    (12): GPSLayer(
      summary: dim_h=256, local_gnn_type=CustomGatedGCN, global_model_type=Transformer, heads=8
      (activation): GELU()
      (local_model): GatedGCNLayer()
      (self_attn): MultiheadAttention(
        (out_proj): NonDynamicallyQuantizableLinear(in_features=256, out_features=256, bias=True)
      )
      (norm1_local): BatchNorm1d(256, eps=1e-05, momentum=0.1, affine=True, track_running_stats=True)
      (norm1_attn): BatchNorm1d(256, eps=1e-05, momentum=0.1, affine=True, track_running_stats=True)
      (dropout_local): Dropout(p=0.1, inplace=False)
      (dropout_attn): Dropout(p=0.1, inplace=False)
      (ff_linear1): Linear(in_features=256, out_features=512, bias=True)
      (ff_linear2): Linear(in_features=512, out_features=256, bias=True)
      (norm2): BatchNorm1d(256, eps=1e-05, momentum=0.1, affine=True, track_running_stats=True)
      (ff_dropout1): Dropout(p=0.1, inplace=False)
      (ff_dropout2): Dropout(p=0.1, inplace=False)
    )
    (13): GPSLayer(
      summary: dim_h=256, local_gnn_type=CustomGatedGCN, global_model_type=Transformer, heads=8
      (activation): GELU()
      (local_model): GatedGCNLayer()
      (self_attn): MultiheadAttention(
        (out_proj): NonDynamicallyQuantizableLinear(in_features=256, out_features=256, bias=True)
      )
      (norm1_local): BatchNorm1d(256, eps=1e-05, momentum=0.1, affine=True, track_running_stats=True)
      (norm1_attn): BatchNorm1d(256, eps=1e-05, momentum=0.1, affine=True, track_running_stats=True)
      (dropout_local): Dropout(p=0.1, inplace=False)
      (dropout_attn): Dropout(p=0.1, inplace=False)
      (ff_linear1): Linear(in_features=256, out_features=512, bias=True)
      (ff_linear2): Linear(in_features=512, out_features=256, bias=True)
      (norm2): BatchNorm1d(256, eps=1e-05, momentum=0.1, affine=True, track_running_stats=True)
      (ff_dropout1): Dropout(p=0.1, inplace=False)
      (ff_dropout2): Dropout(p=0.1, inplace=False)
    )
    (14): GPSLayer(
      summary: dim_h=256, local_gnn_type=CustomGatedGCN, global_model_type=Transformer, heads=8
      (activation): GELU()
      (local_model): GatedGCNLayer()
      (self_attn): MultiheadAttention(
        (out_proj): NonDynamicallyQuantizableLinear(in_features=256, out_features=256, bias=True)
      )
      (norm1_local): BatchNorm1d(256, eps=1e-05, momentum=0.1, affine=True, track_running_stats=True)
      (norm1_attn): BatchNorm1d(256, eps=1e-05, momentum=0.1, affine=True, track_running_stats=True)
      (dropout_local): Dropout(p=0.1, inplace=False)
      (dropout_attn): Dropout(p=0.1, inplace=False)
      (ff_linear1): Linear(in_features=256, out_features=512, bias=True)
      (ff_linear2): Linear(in_features=512, out_features=256, bias=True)
      (norm2): BatchNorm1d(256, eps=1e-05, momentum=0.1, affine=True, track_running_stats=True)
      (ff_dropout1): Dropout(p=0.1, inplace=False)
      (ff_dropout2): Dropout(p=0.1, inplace=False)
    )
    (15): GPSLayer(
      summary: dim_h=256, local_gnn_type=CustomGatedGCN, global_model_type=Transformer, heads=8
      (activation): GELU()
      (local_model): GatedGCNLayer()
      (self_attn): MultiheadAttention(
        (out_proj): NonDynamicallyQuantizableLinear(in_features=256, out_features=256, bias=True)
      )
      (norm1_local): BatchNorm1d(256, eps=1e-05, momentum=0.1, affine=True, track_running_stats=True)
      (norm1_attn): BatchNorm1d(256, eps=1e-05, momentum=0.1, affine=True, track_running_stats=True)
      (dropout_local): Dropout(p=0.1, inplace=False)
      (dropout_attn): Dropout(p=0.1, inplace=False)
      (ff_linear1): Linear(in_features=256, out_features=512, bias=True)
      (ff_linear2): Linear(in_features=512, out_features=256, bias=True)
      (norm2): BatchNorm1d(256, eps=1e-05, momentum=0.1, affine=True, track_running_stats=True)
      (ff_dropout1): Dropout(p=0.1, inplace=False)
      (ff_dropout2): Dropout(p=0.1, inplace=False)
    )
  )
  (post_mp): SANGraphHead(
    (FC_layers): ModuleList(
      (0): Linear(in_features=256, out_features=128, bias=True)
      (1): Linear(in_features=128, out_features=64, bias=True)
      (2): Linear(in_features=64, out_features=1, bias=True)
    )
    (activation): GELU()
  )
)
benchmark: False
bn:
  eps: 1e-05
  mom: 0.1
cfg_dest: config.yaml
custom_metrics: []
dataset:
  cache_load: False
  cache_save: False
  dir: ./datasets
  edge_dim: 128
  edge_encoder: True
  edge_encoder_bn: False
  edge_encoder_name: Bond
  edge_encoder_num_types: 0
  edge_message_ratio: 0.8
  edge_negative_sampling_ratio: 1.0
…
